python/dalex/unbiased_kernel_shap_showroom/logistic_regression_kernel.npy (npy, 21312 bytes, 1 tensors)

array f8 [331, 8]
-0.1789299330850934 -0.025531690246461847 0.020570907816913606 0.0030704279420697977 -0.013253239817053425 -0.08596184521930952 -0.02210947376161232 -0.04299486347865478
0.25117916166011134 -0.12993007331148068 -0.03411137439914433 0.004233018326972891 -0.016710970005809827 -0.09856763451119054 -0.029705344572651914 -0.05426311191450115
-0.17194811529903142 -0.18304192099840202 0.02060443575540241 0.003038134219404437 -0.012411100102799194 -0.08463005289111653 0.055530806210664085 0.026615169328555288
-0.18479351765679886 0.016114889080032488 0.021780096054936665 0.003239695135462725 -0.013504307193349857 -0.09010016931441797 -0.023812239932449908 -0.045491422804728565
0.29364312184034375 0.061606218745520185 -0.033721274564854214 -0.0066155927110670976 -0.013343863810891393 -0.08810524152506624 -0.029367557325478064 -0.052740760459275504
-0.1891859245276306 0.09860298165770198 0.024017040503644754 0.003548154934951156 -0.014104593542200033 -0.09500417712701699 -0.026838756893844018 -0.04958361948463552
0.29648248798072324 0.0009651770425883333 0.030963430881485253 0.004350742542843566 -0.015679757831155106 -0.08783123453640487 -0.02925351479989667 -0.05266793772017614
-0.19081487321131882 0.024916664709136574 -0.03214282159366591 -0.006006961060383037 -0.005698302221549684 -0.09800554723959418 0.06850825061183698 0.03438654410873945
0.3075766045641616 0.09095052991535695 0.030128945051275183 0.004124792123145524 -0.014693788498422039 -0.08045640962696085 -0.027501690228699055 -0.04911383392679941
-0.17612994286693243 0.04672902107057375 -0.0709306636532227 0.003009624725992338 -0.00719081558071008 -0.08421507798460504 -0.02172961464152584 -0.04214648125398934
-0.1791997046792335 -0.11825178681866601 0.028718884118209526 0.004071207359418403 -0.008006113166909815 0.21246994898636073 -0.029333847849548025 0.038773147018215506
0.2687550636998224 0.04108227607001985 -0.022808049977715544 0.002913452362794444 0.016799309658457495 0.18758285889996662 -0.020320319704507317 0.03266621048862817
-0.16484735216004145 -0.1752441186889758 -0.023550135493145746 0.0028698137860085904 -0.0062910846240573914 -0.07990586224521104 0.052142931611451254 0.02468723180977217
0.29497727098904425 -0.09915869109587863 -0.026692210474210998 0.0034894856419028786 0.01003102574413911 0.2164260270242761 -0.023624012593548432 0.03701263246962033
0.31216735883148405 0.044493746490866196 -0.028643544211262334 0.0037847983497435317 -0.004199375591457388 -0.07309696935238966 0.07343363438337347 0.040419899509507695
-0.19049067009344728 -0.03616279940951814 0.025354731330435643 0.0037014367540652154 -0.013263013424395509 -0.09833412938441222 0.06849144174056532 0.034286781905159214
-0.18775742676902668 0.05253684103093001 0.022772599714076774 0.00337756676005177 -0.014492382146516908 -0.09275978576450628 -0.025198991806069965 -0.04741111255034272
0.28844487416304737 0.02298420909070783 -0.03426428635603287 0.0044088813696437495 -0.01586343260964923 -0.09046776271450249 -0.029788457579257646 -0.05364246235040465
0.2706445022417768 -0.11503306236624686 0.030078410012749645 0.004352702237057818 -0.016615796247579397 -0.09546598784594948 -0.030068486910662943 -0.05464091021440465
-0.18368491616140492 -0.17641448863634318 -0.032211432901235085 0.0037405636616587093 0.007454713485010589 0.18859000836190068 -0.027217105610126774 0.03444749802763766
-0.18851922779033742 0.13183475659461064 0.02455626130745514 -0.005796583448016521 -0.016904324406078766 -0.09528064608458882 -0.027504984694404974 -0.050369044958343656
-0.15649271442353685 0.07459240404043153 0.03057037936801435 -0.006858511569740641 0.011178779407997386 0.24419953894544066 -0.029090838570753536 0.04254690571071701
0.28627492851141123 -0.09982351532425265 -0.025266796444530865 -0.022036466891022177 0.09208183446626972 0.20680963767406013 -0.02246874740193991 0.03537717969223225
-0.15381288273276658 -0.09104457385624265 -0.020604755035615957 0.0026018508391777995 -0.009453468638533163 -0.07209995147570022 -0.01776760535733532 -0.03588252608435666
0.2585797633300835 0.044436416404523754 0.02155908730776465 -0.004566756200543615 0.009230253964527813 0.17933016512570504 -0.019510240609286744 0.03142387579096939
-0.187151673307494 0.043169095812974664 0.022516619928582685 0.0033421330344322736 -0.014385523381317683 -0.09214396853557966 -0.024845815659387593 -0.0469299078246761
-0.1760339534893271 -0.08117588734716397 0.029530809892787113 0.00415613135535226 -0.005648795154916009 0.22092679974761475 -0.029746306241496545 0.04012315103197317
-0.17929613345103998 -0.11771215015446537 -0.0264077624256715 0.003155995982663806 -0.006708879929273659 -0.0880076489502957 0.057569063620900224 0.027611534741208865
-0.18931184657123123 0.03689756976989464 -0.08768886143568855 0.0035875086029767966 -0.004582000808378284 -0.0959737922806812 0.06590037929567742 0.03281336465003193
0.27508687267254506 -0.02410691951165601 -0.0348170359972838 -0.017773252083401636 -0.00973519609973858 -0.09452782714781092 -0.03025604586406283 -0.05470730770141967
-0.17288057663778317 0.0030523656977282446 -0.035600343595501474 0.004218414331014941 0.008625382509320344 0.2280271951435595 -0.029935068879963313 0.041190710036584983
-0.18853088478549218 0.0685313589255814 0.023204098775841897 0.0034370770608727064 -0.014663295841275986 -0.09367929681455664 -0.02578440056935069 -0.0481972702925465
00000000: f31e 7011 2de7 c6bf 200a 7bba fa24 9abf
00000010: 3c6b 4a41 8a10 953f 00bb 1173 2727 693f
00000020: d06e a4bc 8324 8bbf 2ab6 eb71 9801 b6bf
00000030: c09a f3aa dda3 96bf 60d8 1239 6c03 a6bf
00000040: 7c14 31c3 5113 d03f 6de1 d173 8ca1 c0bf
00000050: 3c8f eeca 0b77 a1bf 9887 7134 a456 713f
00000060: 2b37 a336 ae1c 91bf cf6d ab7e ba3b b9bf
00000070: d6e4 d2ed 136b 9ebf dd9b 1ae6 5fc8 abbf
00000080: 08ba e855 6502 c6bf 7919 3eec ea6d c7bf
00000090: 6850 e346 5419 953f c056 9fe3 6de3 683f
000000a0: 3028 64a8 fd6a 89bf 9c14 6dad 50aa b5bf
000000b0: 40cd 30a9 886e ac3f 10e5 5fc7 0141 9b3f
000000c0: d4a3 6c61 50a7 c7bf cc43 4fe6 6b80 903f
000000d0: 98ec 0981 854d 963f e07f fc14 228a 6a3f
000000e0: 902d 016e 25a8 8bbf f6c9 9100 ce10 b7bf
000000f0: 907b 045f 3c62 98bf 28bf 63da a64a a7bf
00000100: c5f9 3f85 0ccb d23f bf05 7cad d98a af3f
00000110: f4f7 de36 ea43 a1bf c02c 67a5 f318 7bbf
00000120: 9046 5c15 0754 8bbf bed2 f4aa 108e b6bf
00000130: 2cf7 1a69 8712 9ebf b871 ad42 d600 abbf
00000140: 60d7 5a8f 3e37 c8bf e806 8285 0b3e b93f
00000150: 2819 0a4e ec97 983f a025 042d 0511 6d3f
00000160: 30a0 e57f dee2 8cbf 2572 be99 3152 b8bf
00000170: d056 7f7c 9e7b 9bbf a027 3530 0663 a9bf
00000180: dbb0 6daf 91f9 d23f 001b 98ea 7da0 4f3f
00000190: 4620 08ac e0b4 9f3f 400f f58e 15d2 713f
000001a0: 7044 60bc 5a0e 90bf bab2 e697 1b7c b6bf
000001b0: fc36 6f25 a2f4 9dbf b8a1 1cbc 4af7 aabf
000001c0: 5f39 042c 9f6c c8bf c45d 3410 c183 993f
000001d0: c487 171f 0675 a0bf 20d2 d754 c19a 78bf
000001e0: a0cf f25a 1a57 77bf de7b 383c e416 b9bf
000001f0: 994e e2b7 c189 b13f c42e bdf4 1c9b a13f
00000200: 028a 67c8 55af d33f eb52 8aaf 8848 b73f
00000210: 4401 a246 1fda 9e3f f0ea 5874 28e5 703f
00000220: 30c5 70e8 c617 8ebf cef3 1990 ca98 b4bf
00000230: f8ca 7730 6729 9cbf c859 fecc 7225 a9bf
00000240: 7ddb 3a0c 6d8b c6bf 005f 8bc2 ddec a73f
00000250: 3c96 ac10 8328 b2bf 4010 aff8 a3a7 683f
00000260: e0ef 02dc 1d74 7dbf c822 c68d 1e8f b5bf
00000270: 10cc f5c0 4940 96bf 8035 413d 3994 a5bf
00000280: d76b 8613 04f0 c6bf 7969 14c5 bf45 bebf
00000290: 38e4 42b0 7b68 9d3f be48 6c67 f8ac 703f
000002a0: 8876 c251 8265 80bf 14bd 231d 3732 cb3f
000002b0: d4f5 b734 b109 9ebf 1afe cfec 12da a33f
000002c0: 9868 4e70 4833 d13f 28fb 5470 bc08 a53f
000002d0: d893 f552 fe5a 97bf 80a5 bbd3 f3dd 673f
000002e0: b055 5096 d633 913f 30fd 2112 b702 c83f
000002f0: 20ed 4c92 d9ce 94bf 0040 7723 a0b9 a03f
00000300: 7d06 2ed1 b719 c5bf 73f1 4a37 666e c6bf
00000310: f8a7 09d7 861d 98bf 0096 688b 6f82 673f
00000320: 2095 772b aec4 79bf aa13 1ae9 b574 b4bf
00000330: 243d fa73 7ab2 aa3f c0c8 0115 9c47 993f
00000340: 8685 fd58 e8e0 d23f 92f7 5ec7 7662 b9bf
00000350: e0c1 2dec 3355 9bbf 0059 c756 fb95 6c3f
00000360: 609c 217c 258b 843f f646 091a d9b3 cb3f
00000370: 2855 f5a5 e430 98bf e8e4 fddb 51f3 a23f
00000380: bed5 43cd 8cfa d33f ca0c 1c64 e2c7 a63f
00000390: d8fe 83b6 bb54 9dbf e092 4a24 4c01 6f3f
000003a0: 404c 434d 5d33 71bf 6a23 cea4 7bb6 b2bf
000003b0: e05e 1af2 8bcc b23f 787b 00c5 eab1 a43f
000003c0: 2a4b 1f8f ff61 c8bf 7c64 9731 ee83 a2bf
000003d0: 40cd 7337 97f6 993f 204f d2b9 7952 6e3f
000003e0: c0c6 3b87 a329 8bbf 1064 c9ed 6c2c b9bf
000003f0: e0e4 54b6 a788 b13f 107c ef7d 098e a13f
00000400: 3eec c673 6f08 c8bf ec40 20dc 1be6 aa3f
00000410: 6843 114c b351 973f 4088 c858 45ab 6b3f
00000420: 3026 e29a 2eae 8dbf d815 3ef6 1abf b7bf
00000430: 3806 ccb6 c3cd 99bf 04cc bdf3 4446 a8bf
00000440: f7a9 4e7d e175 d23f 56df 7929 2c89 973f
00000450: 33cf a3aa 168b a1bf 5088 b614 0c0f 723f
00000460: 5000 0bf1 803e 90bf be79 3332 e528 b7bf
00000470: a49f 678c dd80 9ebf c89c f15a 0677 abbf
00000480: cd1e 7e51 3d52 d13f c65e d288 ce72 bdbf
00000490: 1321 48ed dfcc 9e3f 5044 1e9c 23d4 713f
000004a0: aae1 eb35 bb03 91bf 66be ad7f 7570 b8bf
000004b0: 119e afff 45ca 9ebf 3001 cab4 e4f9 abbf
000004c0: 2043 d7c1 fc82 c7bf 7ee8 9dfd bf94 c6bf
000004d0: 0278 bc55 047e a0bf 90c3 0dd3 87a4 6e3f
000004e0: 801f e869 d588 7e3f 3524 22a7 b723 c83f
000004f0: 98f7 f209 cdde 9bbf 5c5b ea3a 1aa3 a13f
00000500: 0a6a 03e7 6521 c8bf 8465 0618 f6df c03f
00000510: e002 e9cc 4625 993f 307d 6785 28be 77bf
00000520: 94b9 f001 5e4f 91bf e503 e0fa 4f64 b8bf
00000530: 5c32 f546 442a 9cbf 8857 a7b1 f8c9 a9bf
00000540: 3074 4109 f407 c4bf 4f38 e2df 7c18 b33f
00000550: 089f 726e d74d 9f3f 30a8 42ae ab17 7cbf
00000560: 007d bb5f e6e4 863f 6c06 bc34 ee41 cf3f
00000570: 3831 1921 fdc9 9dbf 18a5 2541 b5c8 a53f
00000580: 8cc2 e713 5452 d23f d47d b0ad 088e b9bf
00000590: d8a4 9d01 8adf 99bf 701e 7742 ba90 96bf
000005a0: c09b 96d3 ac92 b73f a462 27fb bc78 ca3f
000005b0: 98fa 171d 0c02 97bf 880f 9b2b f51c a23f
000005c0: 2b36 85fa 23b0 c3bf 80d9 307b b24e b7bf
000005d0: 188b 14b4 6919 95bf 8045 6d08 7a50 653f
000005e0: 5010 1715 575c 83bf 269e a175 2475 b2bf
000005f0: 5880 c0cf ab31 92bf 9873 0fc8 315f a2bf
00000600: 8c3f ba22 928c d03f acf0 6ab6 5ec0 a63f
00000610: 3880 acdb 9513 963f 2074 7b48 97b4 72bf
00000620: 4097 4ab7 4fe7 823f f659 3375 4af4 c63f
00000630: 2079 6a15 7efa 93bf 50eb ab4d ca16 a03f
00000640: 96a9 1f06 96f4 c7bf 3ee2 6d7d 421a a63f
00000650: 04c2 d6c8 980e 973f a0d7 9d02 f660 6b3f
00000660: f037 ab43 2876 8dbf b44b 6243 bf96 b7bf
00000670: 804d cc76 2e71 99bf e05f 9f66 3207 a8bf
00000680: 8672 9cd4 4788 c6bf d03d 6165 f1c7 b4bf
00000690: 400c db1a 533d 9e3f 4663 fc03 0506 713f
000006a0: 0014 3ce7 3023 77bf d0eb dc51 5447 cc3f
000006b0: 20a5 efd1 d075 9ebf 9055 fd8a 058b a43f
000006c0: 1359 bcfa 2cf3 c6bf 6259 412b 6222 bebf
000006d0: b049 eaef a20a 9bbf 00e7 0471 9ada 693f
000006e0: 406e 393e c57a 7bbf 1214 0a56 ab87 b6bf
000006f0: 54b6 063b b179 ad3f f0cc d2ba 3246 9c3f
00000700: 4c68 e2de 5e3b c8bf cc59 edfe 3ce4 a23f
00000710: 60fa 16f8 c672 b6bf 8005 f703 8d63 6d3f
00000720: c0a7 f479 93c4 72bf 145e 1e0b bd91 b8bf
00000730: 3372 dee5 d8de b03f 0054 16d0 e9cc a03f
00000740: f4ff 6bf8 059b d13f 23b4 a3fb 7baf 98bf
00000750: 0f6b e7dd 89d3 a1bf 6060 c4c1 2633 92bf
00000760: b0bc f2e6 0bf0 83bf ff6a 29c6 f932 b8bf
00000770: 803e f8dd 70fb 9ebf 960f dca2 9802 acbf
00000780: 66ee 6263 f320 c6bf d00e 1c5b 4601 693f
00000790: 4226 f04e 353a a2bf 40a5 7bf9 5347 713f
000007a0: 8c1b 583e 2faa 813f d0be dec0 fe2f cd3f
000007b0: 3a2e 5f77 4ca7 9ebf 4926 03e1 f216 a53f
000007c0: e445 38b0 c721 c8bf a2f7 5569 458b b13f
000007d0: 7067 80b5 d0c2 973f 00bc 3fb2 1228 6c3f
000007e0: f004 b840 ca07 8ebf f67b 21cc 5dfb b7bf
000007f0: d8f0 c4d4 3967 9abf 706f 5307 50ad a8bf
