python/dalex/unbiased_kernel_shap_showroom/random_forrest_kernel.npy (npy, 21312 bytes, 1 tensors)

array f8 [331, 8]
000000 16 87 e9 9f 14 07 c0 bf 04 3c 6d 12 7f 50 98 bf
       -0.12521608169759507 -0.02374456930129655
000010 c0 83 2d 1b 71 6c 55 3f d0 5f eb 85 c4 91 80 bf
       0.0013075928261161301 -0.008090529763123216
000020 de 62 b4 02 a2 ea b1 bf c8 69 73 7e 83 55 9e bf
       -0.0699864632228002 -0.02962308368010172
000030 00 be 34 e1 2e 62 3c bf 90 fc 52 0b a4 17 a9 bf
       -0.00043309826397128215 -0.049008489973396796
000040 61 31 87 c4 7b 40 c9 3f f4 a4 8b c6 61 66 aa bf
       0.19728037925814149 -0.051562362181195726
000050 e6 3e 40 1c 09 ec 76 bf d4 a4 2d a0 98 05 62 bf
       -0.005596194827390133 -0.0021999340983041935
000060 28 0d 6e d8 f1 40 a5 bf 74 bf ea e7 17 55 a1 bf
       -0.04151111380545053 -0.03385233598726148
000070 44 e3 bd f8 40 e5 84 bf ba 02 6a 68 0b 8d ba bf
       -0.010202891913409957 -0.1037146692197081
000080 26 b4 8f c3 72 79 c4 bf e8 6d 5b f9 90 1e a2 bf
       -0.15995630787748033 -0.035389452399353705
000090 00 7b aa 92 b8 2a 3a bf d4 16 ed 97 22 8a 90 bf
       -0.00039927488493589347 -0.016151943705401475
0000a0 88 a6 2c 4a 83 57 a5 bf 80 88 a5 c5 b7 87 95 bf
       -0.041683295063490056 -0.021025535047904942
0000b0 40 f1 19 f1 a7 7e 74 bf 90 64 f1 a2 1d 67 99 3f
       -0.005003601095833254 0.024807417936561438
0000c0 a5 dd bf 5b bc bf bf bf c0 1f 2e 94 11 86 71 bf
       -0.12401940574624477 -0.004278248469638812
0000d0 c0 b2 7a b9 fb 2f 6a 3f 28 0f 0f ad f6 a9 85 bf
       0.0031967083449074563 -0.010578086048446858
0000e0 34 23 d8 1e 4e ce af bf 20 46 24 98 64 3b 9e bf
       -0.062120858445331356 -0.029523441110603454
0000f0 00 44 9a 83 82 e6 43 3f dc 50 87 d8 c6 ff a5 bf
       0.0006073128963227648 -0.042967046672545556
000100 71 01 41 ae 69 69 c8 3f 00 6a a7 09 40 ec 3a 3f
       0.19071694382183638 0.0004108101217334126
000110 8c 41 6a c8 ab a9 89 bf e2 53 d5 34 03 db 95 3f
       -0.012530653051073391 0.02134327897995892
000120 d0 be 63 0d a8 cb 79 3f f4 3a ae bf b1 4d a0 bf
       0.006297737554845376 -0.0318427607045261
000130 50 97 a3 37 00 2b 88 bf 48 8b a6 6d 80 42 bc bf
       -0.011800767610519763 -0.11038973500266736
000140 cf 63 93 e9 01 5d bf bf 3e 88 68 74 f3 b5 af 3f
       -0.12251293137104756 0.06193505092620953
000150 20 91 ee b3 34 54 68 3f 60 6a 5a 15 03 8c 84 bf
       0.0029698399880137144 -0.010032676781795036
000160 58 7a c9 e6 36 72 aa bf 6c 95 e8 a5 74 12 9e bf
       -0.051652637169117 -0.029367277742627193
000170 00 7f 86 4e 69 9c 52 bf ac 09 89 5f 86 39 a4 bf
       -0.0011359241853838298 -0.03950138012125434
000180 1c fe 53 d9 0f c0 cb 3f 34 48 95 b7 bb a6 8b bf
       0.21679876434062428 -0.013501612224590877
000190 e0 73 c9 5a 4a e1 79 3f 80 48 25 a6 90 07 6a bf
       0.00631836933879712 -0.0031774354148775275
0001a0 dc e7 2c c0 b1 89 9d bf 14 b2 3a ff 81 41 9f bf
       -0.028845574717003206 -0.030523329928359003
0001b0 08 99 53 3d 22 ca 84 bf c4 3d e5 7a b9 fc b8 bf
       -0.010151164528406045 -0.0976062703168657
0001c0 97 b2 d7 bf 0c 6a c5 bf f8 62 6b 29 2c 47 90 bf
       -0.16729888312638216 -0.015896501567882887
0001d0 c0 ef ba c7 72 a1 5a 3f 2c ee 37 db 14 e1 a5 3f
       0.0016254063511231681 0.04273286033636867
0001e0 c0 9a 35 26 0b 75 58 3f 04 ff b3 22 1c dc a0 bf
       0.001492749107308164 -0.03292930530187557
0001f0 10 b3 c6 a2 ed a2 78 bf 50 85 98 b2 a7 78 a8 3f
       -0.006014755501763572 0.04779552512287444
000200 8a d9 64 88 bf 44 cd 3f 30 41 87 cd ee 7c 8f 3f
       0.22866052780018392 0.015375009200312734
000210 30 61 cf 99 82 72 7e 3f 40 64 39 0b f6 ad 6a bf
       0.00743342414804031 -0.0032567792457425526
000220 90 98 78 c5 31 41 90 bf 0c 36 bb 65 1e 48 9f bf
       -0.015873696973493667 -0.03054854865950145
000230 88 e0 0e 69 75 45 84 bf e4 76 d9 b8 45 b1 b7 bf
       -0.009898106831187428 -0.09254871142317317
000240 8d d2 b8 bc 7f f2 bd bf c8 6f 53 70 6a d9 8a bf
       -0.11698149068326753 -0.013110000183978246
000250 7c 21 44 39 77 5f 98 bf b0 4d f4 d7 a1 19 79 bf
       -0.023801672811744265 -0.006127960397197027
000260 e4 8d 56 3b 36 5e a3 bf e0 5c 09 75 83 1c a2 bf
       -0.037828154319210744 -0.03537379077595815
000270 00 e1 b8 6d ad af 46 bf 38 cd aa 89 91 e4 b0 bf
       -0.0006923291034075796 -0.0659876786328838
000280 0c e4 fa d5 2b a4 c4 bf cc af 00 bb ff 4c a6 bf
       -0.1612601084541726 -0.04355620534656132
000290 30 de 78 bb 47 7c 74 bf 40 84 93 6e 9b 37 80 bf
       -0.005001335338924259 -0.007918562232989257
0002a0 20 40 08 2c d5 6c 69 bf c8 60 c9 56 49 25 b0 3f
       -0.0031036532893793517 0.06306894654096873
0002b0 b0 4d 67 2f ef 41 7f 3f 20 2b 27 ef c1 8e a7 3f
       0.007631239239759877 0.046011028712731994
0002c0 64 86 3e e2 38 30 d0 3f 80 fb 67 43 4f a3 65 3f
       0.25294324964679604 0.002641348658698417
0002d0 00 2c 11 01 bf 25 43 3f 00 e7 c7 a7 9a ae 56 3f
       0.0005843336713352576 0.0013844023043234066
0002e0 3a 9d df 31 13 b6 b7 3f 12 cb 25 cd 1e 8d b3 3f
       0.09262199370970317 0.07637207516181047
0002f0 c0 ac 6b 5b f1 2a 7a 3f 54 ba f7 a3 4e 10 b4 3f
       0.006388609696595882 0.07837382796399456
000300 2d be 03 23 ce 52 c5 bf 78 67 8c dd 80 7d a5 bf
       -0.16658951482485077 -0.041973139805306425
000310 50 3b 63 b5 60 2c 77 3f c0 f4 bf 42 ca 38 8c bf
       0.005657556312327852 -0.013780193483393766
000320 20 9b f4 a4 5f 88 82 bf 38 ea 3c c5 bb e7 9e bf
       -0.00904917452005588 -0.030180868066262273
000330 60 58 aa 0a 8f 3b 7e bf 54 85 9f 2c a5 5d a0 3f
       -0.0073810184063828055 0.03196445626941605
000340 c5 e3 69 56 15 ec cf 3f b8 f9 4a 35 98 43 99 bf
       0.24939219207206356 -0.024671915295351815
000350 80 f4 88 10 27 2e 79 3f 80 26 35 34 88 56 57 3f
       0.006147530170491966 0.0014244394413530925
000360 88 47 0b a7 48 7a b8 3f 68 38 9a 89 36 9c b1 3f
       0.09561590269302489 0.06878987178262863
000370 c0 1e 00 3c 81 5d 70 3f 8c 09 1d f5 94 9e b4 3f
       0.003995423146996024 0.08054476722921872
000380 ec 9b e7 a1 d9 a8 d2 3f 00 78 0d be cc 73 41 bf
       0.29155579386718844 -0.0005326032370296385
000390 00 09 a7 2a d1 b1 39 bf 50 fa d3 c6 40 16 7f bf
       -0.00039206844908447336 -0.007589581521868796
0003a0 c0 7b c0 a9 2e 80 82 3f e8 5e ff a4 10 6c 9a bf
       0.009033550792137635 -0.025802860327387572
0003b0 a0 b1 9b 86 d2 31 93 3f 90 cf ba 62 26 4b b7 3f
       0.018744744745093578 0.09099044714349547
0003c0 ed e9 28 75 43 d6 c7 bf b8 4b 2c de 2c b1 8e bf
       -0.18622630329794224 -0.014986372499640285
0003d0 00 25 1f 86 5f 17 48 3f e4 d6 95 ea 37 79 92 bf
       0.0007352081704478375 -0.01804053658766848
0003e0 10 b2 e5 67 5d 0b 98 bf 00 a0 a3 07 f2 cf 9f bf
       -0.0234808535255287 -0.03106668635965093
0003f0 70 54 42 58 71 f1 86 bf 80 3f 37 7c 8e 15 99 3f
       -0.011202703004793174 0.024496294337779556
000400 16 ec 04 ff 24 a9 c1 bf f8 59 d0 0e 36 d8 83 bf
       -0.13797438099013054 -0.009689733817180177
000410 80 96 76 d0 5e a7 52 3f 18 aa 51 85 26 6f 82 bf
       0.001138537017916802 -0.009001065200398492
000420 cc 08 7d 8f 1a 21 ab bf 58 da ce 17 05 2a 9d bf
       -0.0529869365841634 -0.028480605676771326
000430 00 20 83 6e d6 aa 25 3f 88 39 6b 90 07 73 a5 bf
       0.00016530864309616256 -0.04189323079991697
000440 84 16 12 6d 4a 0d c8 3f 00 ea 8b b4 b9 fb 36 bf
       0.18790560079303387 -0.00035069736308881994
000450 92 4a 9f 93 ee 63 8c bf a0 e6 3e 6c d1 5f 74 bf
       -0.013862480049202906 -0.004974191720913318
000460 3d 5a f4 21 ce b6 ab bf 5a 1b c4 c1 57 d6 a0 bf
       -0.054129068035923635 -0.03288530578907141
000470 04 2d 9b 17 56 42 84 bf 9a a5 cc 27 f4 2e ba bf
       -0.009892151446726512 -0.10227895709672055
000480 c3 26 ed 6a 75 85 ca 3f 88 31 a8 12 89 52 ab bf
       0.2071978351689748 -0.05336407044169095
000490 a0 d6 97 42 37 67 74 3f 78 c9 9b 7e a6 5f 66 bf
       0.004981246814613677 -0.002731156525322461
0004a0 23 9b db 55 43 fa 9f bf 4e 42 76 c4 c5 9a 9e bf
       -0.03122811519179004 -0.02988728534325196
0004b0 b4 e9 d7 69 4d 1d 85 bf b2 54 6b 44 c0 66 ba bf
       -0.010309796135506179 -0.10313035650627247
0004c0 2f 68 fd c2 ef 42 c4 bf 67 c4 e3 76 4e 9b a9 bf
       -0.15829274197568696 -0.050013019574074495
0004d0 8a 8b 19 99 58 e3 8e 3f 70 3f 68 37 b4 ae 64 bf
       0.015082065746531165 -0.002524711594794775
0004e0 22 67 f2 7c b7 69 bb 3f a3 2b 76 6e 00 8e b0 3f
       0.10708185959302033 0.0646667737657212
0004f0 6e 72 c6 58 8d c1 88 3f f5 4c df 71 69 f2 9b 3f
       0.01208792140169487 0.02729191548844497
000500 f0 27 db 20 c7 83 ba bf 86 8a 5a 34 ec b7 c1 3f
       -0.10357327034139963 0.13842537456828924
000510 cc 90 63 b4 90 29 7f 3f 84 3e 04 a8 0b c5 a0 3f
       0.007607999088780026 0.03275333810790662
000520 5a bc 57 48 fe 89 a7 bf 09 59 42 c9 21 4f 97 bf
       -0.045974680262468495 -0.022762802037129357
000530 71 8e f7 82 3f 08 7d bf 61 27 5f b0 54 c7 ac bf
       -0.007087944118640986 -0.05620827343916691
000540 b4 b7 51 45 cc 22 c4 bf 3a 51 87 21 2c 25 70 bf
       -0.15731194863059061 -0.003941700350385264
000550 f0 1a e1 3c 8e ff 59 bf 48 68 c3 2b ac 9d 87 3f
       -0.00158680811320416 0.011531205258894187
000560 4e 4c a2 81 d1 99 b3 3f d2 34 37 bc d8 8a aa 3f
       0.07656583228008282 0.05184056565813368
000570 46 6d 04 6a 58 d3 80 3f 50 db fe 2c 03 57 a1 3f
       0.00821560929812527 0.03386697696935548
000580 bd 42 93 7b e9 61 cc 3f 64 3b 4f 27 46 4d 96 bf
       0.22173803838679432 -0.02177915205885074
000590 00 00 bc 80 a6 e8 56 bf a0 1e ba 1a 6c 22 90 bf
       -0.0013982416157318767 -0.015756310588158073
0005a0 42 fe 15 2f c3 21 b0 3f 78 06 52 76 b4 24 af 3f
       0.06301517390783665 0.060826911395463534
0005b0 00 12 93 33 57 61 41 3f 14 46 6f 18 0c 6a b6 3f
       0.0005304027355568786 0.08755565258550063
0005c0 2d e0 bb 3e 2a ca bd bf 72 f6 2d 3b 12 39 a3 bf
       -0.11636604339207741 -0.03754479381948962
0005d0 e0 59 e7 72 54 06 71 3f d8 96 39 c6 80 53 82 bf
       0.00415642726735263 -0.008948331879945412
0005e0 f8 0d 5b 55 19 65 a3 bf 50 56 f0 09 e5 ea 9e bf
       -0.03788069884242512 -0.030192927104584932
0005f0 00 a8 77 b9 5a ed 1d 3f a4 ed 95 19 b7 0a ac bf
       0.00011416307676595516 -0.054769250748871984
000600 64 fb f3 dd 97 46 d0 3f a0 93 6d 88 1d d8 73 3f
       0.25430866885283465 0.0048447755460515884
000610 80 e5 ef 52 1a 0a 6a 3f 90 be 60 2f f5 75 82 3f
       0.003178645528802704 0.009014049061163903
000620 92 44 3c 78 27 c4 b1 3f 1c af e0 78 fc 54 ae 3f
       0.06939932523188677 0.05924214339787978
000630 00 b8 5b f4 37 71 33 3f e0 11 e1 ab 21 59 b4 3f
       0.0002966653449750778 0.07948503919857997
000640 da bd 48 2f 2c bf c1 bf f0 03 55 cc 98 89 82 bf
       -0.13864662464901195 -0.009051507697792588
000650 c0 86 b1 2f 61 1b 52 3f 18 b7 34 aa 5c f7 81 bf
       0.0011051606259332852 -0.008772586769363808
000660 1c da 81 f6 41 8c ab bf f0 82 97 2f 17 6c 9d bf
       -0.05380445608254922 -0.028732645301604742
000670 00 3c d0 35 75 9d 38 3f 5c cc b6 fc b4 26 a5 bf
       0.00037559615685806014 -0.04131093583000542
000680 b9 79 11 7d d7 ae c3 bf 8c 51 3c 05 0a 38 9b bf
       -0.15377324683045204 -0.026580959863240092
000690 40 6e 78 ba 9d 60 62 bf 8c e2 1e 02 29 88 6c bf
       -0.002243335784226891 -0.0034828949873964617
0006a0 80 26 88 27 d0 43 a3 3f 6e ad 91 87 b2 3f b3 3f
       0.03762674791876197 0.07519069490233729
0006b0 d4 82 d6 9e ab 7f 84 3f 3c 5c cb 66 1b a0 a9 3f
       0.010009136948441556 0.05004964475454485
0006c0 90 36 df 7c 49 65 c6 bf f6 54 8a a8 04 3e a1 bf
       -0.17496603581678416 -0.03367628629090717
0006d0 50 88 b0 c6 90 b0 72 3f c8 11 c7 0c d3 2a 90 bf
       0.004562917262804403 -0.015788362173923237
0006e0 00 a2 8a f0 de 62 81 bf 9c 65 80 46 2f e2 a1 bf
       -0.008489362445588178 -0.034928777080675405
0006f0 10 43 fb 48 9a aa 8b bf b8 27 39 17 f2 76 a3 3f
       -0.013508992531031022 0.03801685842024888
000700 ea 3d 30 05 fe 7a c7 bf 70 ef 37 8e 2d 8a 8c bf
       -0.18344092610685375 -0.013935428526558019
000710 30 43 c7 bc df ed 7b bf 28 64 a6 21 93 f9 8c bf
       -0.00681865117481166 -0.014147901024260959
000720 28 dc d0 c2 be 4a 90 3f a4 ef 8d 08 92 96 a4 bf
       0.01591013015805856 -0.04021126131462374
000730 38 0c cd e6 fc 0c 90 bf cc 3e c1 51 37 b5 a4 3f
       -0.015674544894192816 0.04044506905540643
000740 71 a4 ba 58 bc 31 c8 3f ec 2a bf 4c f6 79 81 bf
       0.18901781399225429 -0.008533405511021518
000750 48 d0 ed b0 5f 24 7f bf 78 f6 3e 87 db 4d 99 3f
       -0.007603048127624197 0.024711065416104877
000760 70 b6 ae c5 48 17 88 bf dd f0 3a 3f b3 dc a0 bf
       -0.011763161213674794 -0.03293380877355088
000770 70 8f 04 e6 05 ff 8a bf e0 04 f4 08 86 97 c0 bf
       -0.013181730348669624 -0.12962413251083316
000780 32 df fc ac 00 4a c3 bf 60 c0 47 c6 05 0b 65 bf
       -0.15069588133496264 -0.0025687325271448874
000790 30 29 31 67 a6 97 82 3f 10 aa 57 9a 7d d0 6f bf
       0.00907831194321726 -0.003883595770038946
0007a0 19 a0 b3 bd aa 2b be 3f 2e 94 8a aa 25 53 b3 3f
       0.1178538048876593 0.07548747457129032
0007b0 db 63 c8 5f d1 6f 8c 3f ff 5c 13 39 8d 88 a0 3f
       0.01388515065723255 0.0322918064281854
0007c0 ac a1 ed e1 12 ce c1 bf f0 bf ed b6 13 05 72 bf
       -0.1391013720670008 -0.0043993730640607825
0007d0 c0 1d 31 d8 04 e0 54 3f d8 21 a4 ae 45 19 82 bf
       0.0012741133985104541 -0.00883726538860767
0007e0 10 78 95 3a 31 0d ac bf b8 a0 5a b4 e3 d2 9d bf
       -0.05478814926276254 -0.029124791987357596
0007f0 00 10 c2 3b 87 ce 20 bf 5c ad ec 17 03 90 a6 bf
       -0.00012822533415512982 -0.04406747500464789
