python/dalex/unbiased_kernel_shap_showroom/support_vector_machine_kernel.npy (npy, 21312 bytes, 1 tensors)

array f8 [331, 8]
00000000: f0a2 83f9 14a3 65bf 5891 b79d 5f7b 84bf
00000010: 70b7 b557 58b0 633f 00b1 93ba 7acf 333f
00000020: 7efa d0f4 d71c bdbf 0064 9a99 da0d 33bf
00000030: 0093 696f b005 40bf 80e7 b082 80bb 57bf
00000040: 5891 140a 3497 713f 681e 667c 75f5 89bf
00000050: 802e 3306 501d 63bf 00d9 e90f c6cd 353f
00000060: 6900 af25 5476 bbbf 003a 4bdf ccdc 31bf
00000070: 0006 6b8f 1555 3ebf 00df 96c4 4b55 56bf
00000080: 101f 89ac 17d4 63bf 6c5b b8e9 b738 94bf
00000090: 002e 11d0 f844 603f 0089 a6a9 f3b1 373f
000000a0: 2e9d 3571 6782 b9bf 0087 58af 1749 30bf
000000b0: a090 0be8 1164 513f 00e3 0e93 d6fc 513f
000000c0: 70e9 c0c5 d4d3 65bf 104f 1fda 453d 6ebf
000000d0: 60ed a589 9498 643f 004c 6761 2774 323f
000000e0: e38c cd8c df71 bdbf 0023 80c5 9cc7 33bf
000000f0: 0003 3b91 5b5b 40bf c0a7 0919 667d 58bf
00000100: 48de ac8a 66b4 723f a8f0 b0df e316 743f
00000110: a0b9 d990 b470 67bf 8036 cbf4 0769 3ebf
00000120: a33c 8eba a907 bcbf 8011 eb62 c426 35bf
00000130: 0023 8ceb d16c 41bf 00e5 3bc5 fafa 59bf
00000140: c0a7 210e 65fc 65bf 7279 9597 842b 993f
00000150: d0ca 4e95 46c0 683f 00ab 686d a0b2 2d3f
00000160: 1acc 8c49 8cb4 bcbf 803a b57e 1dac 34bf
00000170: 80e9 07e4 e8ca 40bf c0ae 478a 1e18 59bf
00000180: c0d1 0b2a 5534 723f 7003 cc09 0bf2 7bbf
00000190: 701e 6d3b 9941 643f 0082 bb2c 06af 323f
000001a0: 1baa db5a 3c6d bdbf 0096 9986 1662 33bf
000001b0: 00a9 fa33 6450 40bf 00e4 9ad9 683f 58bf
000001c0: 58c6 89d5 af8b 67bf 58a0 d0ac 5054 653f
000001d0: 58b2 84f8 0ef6 68bf e096 d536 f873 44bf
000001e0: faaa 72e0 bbfc a3bf 8022 b6a6 f5c6 37bf
000001f0: f0e2 c65e c41e 553f 000b 818d 176e 573f
00000200: 309f ba1f 1e6a 723f c861 1bf2 f013 873f
00000210: 90de 5102 aa72 653f 0079 da10 f398 2f3f
00000220: dec8 4d27 62c7 bdbf 80cd 4bfc dad6 33bf
00000230: 80d6 f2f8 5186 42bf 40c7 d69f 85da 59bf
00000240: 307e 5c13 ddf1 66bf 5c06 8110 f56a 873f
00000250: 345e c497 02e5 81bf 00ea 6d09 b14b 363f
00000260: 9a00 cf6f 5ed0 b0bf 00d9 b70e d8d3 36bf
00000270: 00b3 a91f 6a04 41bf 400c c70a 76a9 5abf
00000280: 20eb 656d 1f5b 66bf 4e47 190e 6000 99bf
00000290: e0e4 11a6 8543 653f 00a6 9dbc 1dce 3e3f
000002a0: 2b93 2614 fe7b b0bf 809e bccf 9ee3 4c3f
000002b0: 8055 d3a9 5172 3fbf 809a b765 9247 553f
000002c0: 4033 58af fc60 6c3f 205f a6f4 4f0a 793f
000002d0: 0078 5c15 ae8d 62bf 0096 91ab b1c6 363f
000002e0: dc3b 68fd 1a9a d53f 00f7 94b3 344b 4a3f
000002f0: 0036 fee4 9a96 35bf 00ca 2c64 a4eb 503f
00000300: f055 060b 3389 64bf 0518 0917 0592 a6bf
00000310: 50c4 1cc0 865d 62bf 807c c109 4faf 3c3f
00000320: e682 aac5 6545 b2bf 003a b3e3 d298 32bf
00000330: 8063 7573 3c4f 513f 80a9 cfc0 b5b9 523f
00000340: a09c 8e3f 74dd 713f 5cf2 68d9 9df9 97bf
00000350: 201c 3d1e ee30 65bf 8040 f572 5165 413f
00000360: a5fb 5d3b 3902 cd3f 003a 60ee 28f7 4e3f
00000370: 0050 cd33 5708 3abf 0024 46e6 9d11 543f
00000380: e4c4 8bd6 71b1 733f c096 0b32 77e4 793f
00000390: 6835 8c6b 3e37 69bf 8027 5084 5ade 383f
000003a0: 9a36 1cfc b31a a7bf 00c4 5916 79c3 37bf
000003b0: 20ed 10a8 636d 553f 80be 0468 09b7 573f
000003c0: 9088 c0b3 9a40 66bf a801 1d57 9ecc 86bf
000003d0: 000b 0ac9 1452 643f 00b5 d053 71be 353f
000003e0: 2f84 405b b4fc bbbf 00fc 78b8 7010 34bf
000003f0: a0d4 4a7c 3432 543f 80ef b07f 0648 553f
00000400: 00f3 5e5c c0ce 65bf d8e2 c5b4 aeee 733f
00000410: 40f4 580d 24f9 643f 809a d2be eb4f 303f
00000420: 8a2c 4f0b eed2 bdbf 80dc 5212 2ab6 33bf
00000430: 00d2 dd8c 7b9a 40bf 009c 956d d7a3 58bf
00000440: 48e2 e5eb 932b 723f 9016 a757 2696 6fbf
00000450: 2071 aa07 52aa 65bf 004b 1582 8621 323f
00000460: 3af6 adc8 aa86 bdbf 80e7 0b39 1ca6 33bf
00000470: c067 2420 cb61 40bf 00f4 8ed7 7971 58bf
00000480: 18ca ec78 feb4 713f 18af aedf c9ae 8abf
00000490: 7002 009c 1a75 623f 80ff d6c5 ebb5 353f
000004a0: 4249 0330 57cd bbbf 8073 aaac 7500 32bf
000004b0: 00cb 47e6 82cc 3ebf 4094 fbd4 d5b8 56bf
000004c0: 0049 58f0 44a9 64bf 54e8 0114 e8bb a5bf
000004d0: e0a1 d3be 73a7 63bf 809d 2971 6485 413f
000004e0: 6cc1 8cbd 2e9c c93f 00fd 5a21 8902 4d3f
000004f0: 009a b8f6 24e4 38bf 8033 ec8e 370b 533f
00000500: 3091 8d62 fc90 64bf 520e 4ef8 1cb2 a23f
00000510: b0ba a1a6 1416 653f 8025 56d9 7247 33bf
00000520: 49d4 8024 827d bdbf 8083 3373 63c8 32bf
00000530: 0094 cbbb 774d 40bf 80df c154 d0f3 57bf
00000540: 80ee 49c5 2ec9 64bf a013 94fc 0f0e 8c3f
00000550: 407d a7a6 cb99 663f 0006 87f5 dd12 45bf
00000560: 5243 ced7 5c81 ce3f 8034 eb4e ea2a 503f
00000570: 0098 c21f e2d5 3bbf 0060 3fad 752a 553f
00000580: 0028 7dea ff5d 623f 389b 3dd9 2099 90bf
00000590: 003a 1755 98db 52bf 80f7 9276 74a9 56bf
000005a0: 2db2 706f 86da d43f 001a 5a93 e31e 3b3f
000005b0: 0058 c26e 7528 2fbf 002e 2f3b f5a2 443f
000005c0: 30bf 0ea4 e866 65bf 7430 c3d4 ace9 93bf
000005d0: d001 1e2c c78b 63bf 0027 449d 867d 383f
000005e0: 6b1c 66cb 6b70 babf 00dc dd93 79a0 32bf
000005f0: 004a b7c1 f736 3ebf 80af bc3f fecc 56bf
00000600: 605b 9ee5 107d 713f f051 215a 1e00 893f
00000610: 0005 6a98 d27d 663f 0013 8544 b720 45bf
00000620: 5837 e1ff 8b10 cf3f 00b5 ee9a 4b05 503f
00000630: 00ae ab56 5a6d 3bbf 0084 0da9 c30d 553f
00000640: 809e beda efc6 65bf 1019 17fc e150 623f
00000650: d0ee f8f5 3ada 643f 0031 5ad2 22b0 303f
00000660: 7688 4889 07cf bdbf 0075 d006 c889 33bf
00000670: c0b5 1dcd 7690 40bf 8088 8e02 43b8 58bf
00000680: d89e 5de9 f911 67bf 4cf2 f364 74d1 94bf
00000690: 3084 b402 0385 653f 4054 e559 3b5d 3d3f
000006a0: a68e d389 98cb a2bf 200a f4b2 4032 4e3f
000006b0: 00d5 696b 5512 40bf 409d 7d4b 4816 563f
000006c0: 60e1 6d6f 2e7a 69bf 34a2 ade1 fb55 9ebf
000006d0: e083 62a2 0a0a 65bf 8088 07af 13dd 3d3f
000006e0: 5ad1 2a06 6651 b1bf 00f5 3bdc 08c8 36bf
000006f0: c0f4 eebd 934f 533f 8069 4787 8725 553f
00000700: 24ff f000 86cc 67bf 00b3 d635 728c 7c3f
00000710: 6bac b9d0 0ea8 82bf e0fa bbee df3d 3a3f
00000720: 7690 941b 5f17 96bf 40ed 581e 54a6 38bf
00000730: e0a4 9f5c 5153 553f b0a8 6df1 c1c9 573f
00000740: c804 86ba 82dc 733f 5833 ed61 db59 84bf
00000750: 50a7 6124 f8ed 6bbf 20a9 b076 dd41 59bf
00000760: 9d98 34a8 3c1e b6bf 8089 7784 9076 38bf
00000770: 0037 d312 3d6f 42bf 800e 8851 b743 5cbf
00000780: a081 8825 ce40 66bf 40d5 64a8 2071 5b3f
00000790: 001f 4c85 3e43 68bf 0054 0c82 c83d 403f
000007a0: cbc7 8aa1 0615 cb3f 0012 ba8d 06d6 503f
000007b0: 00a0 8140 65ff 3cbf 80de 44e3 0bfc 553f
000007c0: 3059 baae 70c2 65bf 089e 5768 f182 843f
000007d0: 20d7 322d 0749 653f 00df 6690 c45e 2f3f
000007e0: b3a8 2b2c a1d2 bdbf 800a 109b 1fd2 33bf
000007f0: 80bd da8f 4c3c 41bf c051 edfe 9920 59bf
-0.0026412400876448736 -0.010000941277163264 0.00240342382828989 0.00030228372868525144 -0.11372136809311859 -0.0002907427493510917 -0.0004889594554922938 -0.0014485125527827492
0.004294589308561157 -0.01267520700345344 -0.0023333132718102445 0.00033269963743211284 -0.10727430267343298 -0.00027256013644896826 -0.0004628350865623909 -0.0013631095811045824
-0.0024204695112394273 -0.019747613563676422 0.0019860133766422816 0.00036155890270540836 -0.09964605821516123 -0.00024849727864949267 0.0010614561908193557 0.001097878976208999
-0.0026644855224990313 -0.003691326551214298 0.0025141621710510903 0.0002815815109020181 -0.11501881778308447 -0.00030181481770390206 -0.0004991719346990331 -0.001494741158376986
0.004566574624554294 0.004904642230993662 -0.0028613592792716275 -0.00046402401202958604 -0.10949192814426793 -0.00032274527158573235 -0.0005317711830637728 -0.001585717099202022
-0.002683827756347207 0.024580070259042804 0.0030213717058925407 0.00022657593099614098 -0.11212994380620991 -0.0003154346474802186 -0.0005124699746937161 -0.0015316293948854226
0.004444439575980785 -0.006822627180327653 0.0024726860823738803 0.00028509045362848373 -0.11494805544104063 -0.00029576349206758556 -0.0004978646538423004 -0.0014799617696736878
-0.0028742250690861164 0.002603681152795228 -0.003047017326159012 -0.0006241762145406636 -0.0390375815853385 -0.0003628110632339157 0.0012890737226440262 0.0014300565726592107
0.004495732947965611 0.011268503559606638 0.0026181526650893086 0.00024106948005892664 -0.1163235994297653 -0.0003027233727117204 -0.0005653286224489157 -0.0015779786038873783
-0.0028008764155769347 0.011434473577654085 -0.00873758340507811 0.00034020492733302654 -0.06567945699407787 -0.00034832024422772057 -0.0005193250829741147 -0.0016273167376403969
-0.0027289975943721873 -0.024415493832129535 0.0025956735922220003 0.0004700491523324801 -0.06439197532615697 0.0008816266485824481 -0.00047983640417944423 0.0012988023435071272
0.003464215779564489 0.006113350226222086 -0.0022648239199858367 0.00034753644610527323 0.33753084894936847 0.0008024222690108107 -0.00032941133121586197 0.0010327439674254757
-0.002506828015792044 -0.044082793294862234 -0.0022418624729643524 0.00043769530907939586 -0.07137142253715076 -0.00028376721065806465 0.0010564890233892565 0.0011429095204627815
0.004361585707477605 -0.023413149256372598 -0.002586808275654842 0.0005308768940413128 0.2266303577307244 0.0009449910983237442 -0.00039722565616284733 0.001224903296220825
0.004807896308862445 0.006321397406940654 -0.0030781001227128575 0.00037946424373613147 -0.045125603223010916 -0.0003626032470043783 0.0013078187187279336 0.0014474479540459717
-0.002716352608346524 -0.011132466348158968 0.0024805456126285597 0.0003317858389120937 -0.10932471492607541 -0.00030615570037534345 0.0012326729349017365 0.001298910471418474
-0.0026620633170452157 0.004866297193409884 0.002560205854733627 0.00024890428069072185 -0.11649978424172694 -0.00030077483308894176 -0.0005066970131638038 -0.001503906611412864
0.004436090296046809 -0.0038557766795033824 -0.0026446916720727215 0.00027665647401879656 -0.1153361072483329 -0.0002998179343617277 -0.0004999391387940852 -0.0014918985236669347
0.004322999985378682 -0.013028695238822816 0.002253105136333304 0.0003312779061523871 -0.1086019985407676 -0.0002746856013489604 -0.00046995349683169596 -0.0013868416025897418
-0.0025221201383455183 -0.04244923824531158 -0.0023991833355589826 0.0005347004356054813 0.2000788140808355 0.0008853120404736237 -0.00037980940280349373 0.0011623423158113322
-0.0025105409044262825 0.0365151455980849 0.002574005445289039 -0.00029417566232633335 -0.11519635573570598 -0.0002866022870887039 -0.0004975161205861278 -0.0014619383319125212
-0.0025373376359406064 0.013698696990567971 0.002758882289739667 -0.0006431182655932122 0.2383228353251306 0.0009867942969095378 -0.0004247357426357956 0.0012918614565844422
0.002242088161357181 -0.016209138163868902 -0.0011509883519128516 -0.0013831746421568425 0.32583771593889105 0.00041382843060269736 -0.000237716994324344 0.0006297776620782236
-0.002612547279987519 -0.019446087347020982 -0.002385987289869919 0.0003736928604359674 -0.10327790942948105 -0.0002842232532808686 -0.0004610400080455046 -0.0013916476154447188
0.0042696628605856934 0.012207257390550702 0.002745543784215543 -0.000644769178543031 0.24269247049454168 0.0009778250057295712 -0.00041850524455241955 0.0012850199456908573
-0.0026583370835913667 0.0022358335270126276 0.0025454665735916496 0.0002546391500366646 -0.11644026853221753 -0.00029812940084801565 -0.0005055027088311445 -0.001508775176468663
-0.00281618891579059 -0.02033025613944721 0.002626901512158962 0.000448061933544356 -0.036709563087950856 0.0009215179360640459 -0.0004904667938051832 0.0013480859760991032
-0.003110018438231929 -0.029624877595241197 -0.0025682647420386256 0.0004556820922784269 -0.067648293023756 -0.0003476163512770719 0.0011786406318912562 0.001290685989366297
-0.002905141569072971 0.006969877370846644 -0.009109607453146226 0.0004004165373174117 -0.021573530252809246 -0.00037612489390755413 0.001301602797406702 0.0014519113517175546
0.004848967226622487 -0.009937013555509175 -0.0034093710447011052 -0.0015415823679725896 -0.08639887911394557 -0.000373277933674164 -0.0005625770769712435 -0.0017251291484407238
-0.002716448431115917 0.001674920933124227 -0.002961752043464716 0.0004956463854762783 0.2115791596202697 0.001027590179462412 -0.0004424688527309151 0.001341830834531793
-0.0026561928587610847 0.010015378948948786 0.0025982990424279345 0.00023933553184262574 -0.11649520233518977 -0.0003024413263689532 -0.0005259870374256098 -0.0015336517205542938
